data.pth (torch, 7850 bytes, 6 tensors)

l1.weight f4 [8, 101]
000000 12 31 6b bd 32 7e 8b 3e e4 a4 47 3f 57 fa 1c be
       -0.057419844 0.27244717 0.7798598 -0.15329872
000010 26 51 24 be a7 bd fd 3d 20 52 c3 3d 62 4f 6b be
       -0.1604658 0.12389689 0.095371485 -0.22979501
000020 4e 74 d5 bd bf 11 84 3e 5e 27 f6 3e 71 23 86 3c
       -0.10422574 0.2579479 0.4807691 0.016374322
000030 ae 9b e7 3d 8a 82 08 3f 24 89 dc 3d ec 3a 0e 3f
       0.113089904 0.53324187 0.10768345 0.5555866
000040 77 4b cb 3e 3e a4 ad 3e a5 f3 48 3d 9f 6e 4b 3e
       0.39706013 0.3391437 0.049060483 0.19866417
000050 ce 0f 22 be 51 29 7e 3e 35 23 bc 3e 7a d1 82 be
       -0.15826342 0.24820448 0.3674561 -0.25550443
000060 13 20 ec bd 41 65 c6 be 06 ff da be 16 dc 97 3e
       -0.11529555 -0.38749126 -0.42772692 0.296601
000070 ac 30 b9 be 3b 0d f3 bc b7 0a c1 be 87 87 a9 3d
       -0.36169946 -0.029669395 -0.37703487 0.08277803
000080 08 b3 a5 3d 1a f8 e2 be 06 0e 97 be d2 e1 c2 3e
       0.08090788 -0.4432991 -0.29502887 0.38062912
000090 bf 39 cb 3e 2b a2 83 be ca 53 b7 3e e2 a0 22 3f
       0.39692494 -0.25709662 0.35806113 0.6352674
0000a0 44 94 42 3f 19 ee 31 3f c2 90 14 3f 3a 78 0b 3e
       0.76007485 0.69503933 0.5803338 0.13620082
0000b0 d1 01 5b 3e 2b 67 45 3d 8c 16 db 3d d5 89 3f be
       0.21387412 0.04819409 0.1069766 -0.18704922
0000c0 25 4e f9 3d 56 be 8d 3e b5 24 1e bd 8f 29 d9 3e
       0.12173108 0.27684277 -0.038609225 0.4241452
0000d0 32 02 44 be 4c 38 3c be ba af 17 be 15 40 fc 3e
       -0.19141462 -0.1838085 -0.14813128 0.4926764
0000e0 9e e4 f6 3e d0 fe 5e be cc 8f 53 bd 9f bc bb be
       0.48221296 -0.21776891 -0.051650807 -0.36667344
0000f0 ba a2 a9 bd 0b a9 c8 3d 8c a7 d1 3d b1 53 46 be
       -0.08282991 0.097978674 0.10237035 -0.19367863
000100 02 cb 86 be b6 41 02 be c0 27 5e bd 41 5f 0f 3f
       -0.26326758 -0.12720379 -0.054237127 0.5600472
000110 58 00 df bd 96 a4 3e 3f 80 3b 51 bd e4 0b a4 3e
       -0.108887374 0.7446989 -0.051082134 0.32040322
000120 98 5f 66 3d 92 94 b5 3d 1c 67 b6 3d 82 24 07 3e
       0.05624351 0.08866228 0.08906385 0.1319752
000130 37 9f b5 be 07 9b 7b 3e e4 b1 45 3f 0f d7 4a 3f
       -0.35473034 0.24570857 0.77224565 0.79234403
000140 d5 73 84 be 6e a3 4a be c6 7e 07 bf 44 cf f6 3e
       -0.25869623 -0.19788906 -0.52927816 0.48205006
000150 07 54 b8 bd a2 6d 61 3e fe 49 c6 bd 59 00 a7 3f
       -0.09000402 0.22014478 -0.09682082 1.3046981
000160 ef fc 20 3f 13 10 72 be 97 8b b4 3e 8d 34 20 3d
       0.62885946 -0.23638944 0.3526275 0.039112616
000170 49 b3 90 3d ff 1b 2b be b4 09 c8 3e 5c 35 1a 3e
       0.07065446 -0.16709898 0.39069903 0.15059417
000180 6e 2d a3 3e 74 80 a6 be 1c 87 85 be 52 d0 d8 bc
       0.31870598 -0.32519877 -0.26079643 -0.026466522
000190 19 d5 31 3f c3 22 3d be e7 55 e5 3e 3a d5 b5 3c
       0.69465786 -0.18470292 0.447921 0.0221964
0001a0 a4 0d c5 be 2d f2 97 be 23 bd 46 3e 29 f7 4e 3d
       -0.3848697 -0.29676953 0.19408087 0.05052868
0001b0 5e da 59 be bc 4b 64 be ef 6e 27 3e 96 09 d0 3e
       -0.21274707 -0.22294515 0.16350912 0.40632313
0001c0 be 68 1b be eb 42 5a 3e 22 76 35 3f 7f 28 ed 3d
       -0.15176675 0.2131459 0.7088338 0.1157999
0001d0 46 37 cb 3e 02 f4 aa 3e b5 56 da 3e c8 c6 13 bd
       0.39690608 0.33389288 0.42644277 -0.036078244
0001e0 9c 5c a6 bc 02 fc 90 be 86 5c 9d 3e 60 75 f9 3e
       -0.020307831 -0.28317267 0.30734652 0.48722363
0001f0 0c d7 16 bf 1d 4e 38 be a2 4f 50 be b2 4d ac be
       -0.58921885 -0.17998548 -0.20342878 -0.33653027
000200 19 e9 a9 3e bf 70 ca be c0 aa 18 3d cf ab 3e be
       0.33185652 -0.39539143 0.037272215 -0.18620227
000210 db ce 6f be 61 81 af 3e ba 8b 7a 3c 64 a7 7e be
       -0.23418753 0.34278396 0.0152921025 -0.24868542
000220 85 64 16 3f 92 52 d9 3e 0b f0 14 bf 39 b3 de 3e
       0.5874713 0.4244581 -0.58178777 0.4349611
000230 3c 0a 20 3f 93 59 ac 3e 05 c5 e9 3e 35 8e 19 3f
       0.62515616 0.3366209 0.45658126 0.59982616
000240 21 3d 13 3f dc 8d 9e 3e 2e 05 7d 3d 76 8b cc 3d
       0.5751515 0.30967605 0.061772518 0.099875376
000250 12 5a 51 be d1 3d 8c bd 4e 6b f0 3e 28 3b ed bd
       -0.20444515 -0.06847728 0.46956867 -0.11583549
000260 d6 87 a0 3e 30 03 fb bd 60 0f c7 be 50 ad b5 be
       0.31353635 -0.12256467 -0.38878918 -0.3548379
000270 b9 82 1a 3e 9b 3a fb 3e b0 fa 57 be 3b 52 c5 3d
       0.15088929 0.4906815 -0.21091723 0.09634825
000280 97 2c 1f be bc 07 90 be 6d 01 9a bc f6 30 65 3c
       -0.15544353 -0.281309 -0.018799508 0.013988724
000290 de 4f 6a be e4 54 a5 be b5 0c 06 be d0 e9 51 3e
       -0.2288203 -0.3229133 -0.13090785 0.20499349
0002a0 bb c7 08 3f 79 41 87 be 4b 89 6b 3f 25 85 f6 bb
       0.53429765 -0.2641714 0.9200637 -0.0075231963
0002b0 30 80 05 3f 6e fb 9e 3e d6 40 22 3e 1c 8a cd bd
       0.52148724 0.310512 0.15845045 -0.10036108
0002c0 42 4a bd 3e 4e 40 80 3e 90 8e 70 3f 88 4d 69 3f
       0.36970717 0.2504906 0.93967533 0.9113393
0002d0 37 25 4b 3f 90 5e b3 be 6b f4 f3 be 90 1d cf be
       0.7935366 -0.35033083 -0.47647414 -0.40452242
0002e0 58 0c bb 3e 45 4f 04 bd 85 33 99 3e 26 69 83 be
       0.36532855 -0.03230216 0.2992212 -0.2566616
0002f0 0e 8b aa be 6d 64 14 be 1e 9d 80 be f9 c5 97 3e
       -0.33309215 -0.14491434 -0.2511987 0.2964323
000300 67 87 78 3e 5d f4 db 3e 30 58 a4 be cd 9b e3 3e
       0.24270402 0.42959872 -0.32098532 0.44454804
000310 30 b6 45 3e cc 2e 2e 3e d4 af bb be 67 ee c5 be
       0.1930778 0.17010039 -0.36657584 -0.3865845
000320 16 cf 55 be bc a8 a7 3e b2 ed 17 3e 00 7e 46 be
       -0.20879778 0.32745922 0.14836767 -0.19384003
000330 c5 ce f4 bd 1f 5c fc 3e e2 a1 70 3e f0 bc 0a be
       -0.11953501 0.49289033 0.23499253 -0.13548636
000340 ae 91 d6 3d 5e d8 5c 3e a3 88 84 3e c4 9d ce 3d
       0.10477005 0.21566913 0.25885496 0.10088685
000350 5a 0e 46 3e d5 e2 bd bd 12 3a e9 3d a8 40 28 be
       0.19341412 -0.092717804 0.11388029 -0.16430914
000360 fb ff 2f be a5 09 aa bd 73 ad 96 be 39 1d 58 3d
       -0.17187493 -0.08302621 -0.29429206 0.052762244
000370 9d 73 d3 3c e5 cf cb 3d 64 da a1 3e d9 f0 c1 3c
       0.025811965 0.09951762 0.3161193 0.023674415
000380 4d 19 3c be b1 53 60 be db 0b 94 3e 74 ae 15 bf
       -0.18369026 -0.21906926 0.28915295 -0.5846932
000390 e2 e7 37 3d 10 c5 9c be 3e 63 e4 3e f9 48 f6 3e
       0.044898875 -0.30619097 0.44606966 0.4810255
0003a0 e0 dd 48 3e 44 6c 4d 3f e5 ab 2d 3e 79 25 b0 be
       0.19615889 0.80243325 0.16960104 -0.3440359
0003b0 be 52 4f 3e 04 9f 8d be 44 a6 7c be 4a 7c 5d be
       0.20246407 -0.27660382 -0.246728 -0.21629444
0003c0 44 7e 09 3d 37 86 0d bf bc 09 70 be 79 9b 0d bf
       0.033567682 -0.5528292 -0.23441213 -0.5531536
0003d0 19 8c 0d bf 7c a5 fb 3a 2a d8 d6 bc 36 87 6b 3d
       -0.552919 0.0019199098 -0.026226122 0.057501994
0003e0 89 19 0b 3f 55 f3 20 3e 28 28 cc 3e 21 b3 5e 3d
       0.5433584 0.15717824 0.39874387 0.05437005
0003f0 98 b3 16 3e 39 de 0b 3c 86 38 92 be 80 65 dc bc
       0.14716947 0.008536869 -0.2855875 -0.026903868

l1.bias f4 [8]
000000 0f 68 8f 3f 6d 7a 71 3f 96 87 0d 3f da 77 81 3f
       1.1203631 0.9432743 0.5528501 1.0114701
000010 32 7b 77 3f 42 47 12 3f b9 69 e2 3e b9 c3 7a 3f
       0.96672356 0.5713998 0.44221285 0.979549

l2.weight f4 [8, 8]
000000 8a df b0 3f f7 ac b3 3f 64 43 66 bf 1c 49 83 3f
       1.3818219 1.403716 -0.8994658 1.0256686
000010 74 59 4a 3f 46 0a c3 3e 09 0d 5a 3f fa 83 8b bf
       0.79042745 0.38093776 0.8517614 -1.0899651
000020 61 06 3e 3e 4c 89 81 3e 0c b6 45 bf 93 c9 01 3f
       0.18557121 0.25300062 -0.77230906 0.506982
000030 28 c8 ea 3e 3f e8 af bd fd 09 83 bf 16 ce 85 3f
       0.45855832 -0.08589219 -1.0237423 1.0453517
000040 c5 fc 0f 3f 0b f4 e0 be ab 10 00 3f 5c 37 3a 3f
       0.5624507 -0.4393619 0.50025433 0.7274072
000050 d8 a2 8e be ef 41 af 3f db ae d1 3f 06 bc 07 3e
       -0.27858615 1.3691996 1.6381487 0.13255319
000060 2a 9e 9a be b1 6b 56 be 33 53 04 be ad be 8c 3f
       -0.30198795 -0.20939519 -0.12922363 1.099569
000070 fb 01 f6 3e 69 e4 19 bf 74 b7 e5 be 60 89 c3 3f
       0.48048386 -0.6011415 -0.44866526 1.5276299
000080 e3 1b 47 3f 48 e3 d0 3e 33 31 57 be 7b 6c 25 bf
       0.77776927 0.40798402 -0.21014862 -0.64618653
000090 33 c6 e0 3f 4b 95 7d 3f ea c0 17 bf 6e 9b ec 3e
       1.7560486 0.9905593 -0.5927874 0.46212333
0000a0 6b a7 c3 3f ca 9a b2 3f 49 72 6f bf fe 94 82 3f
       1.5285467 1.3953488 -0.9353376 1.0201719
0000b0 b6 02 dc 3e 29 9d 6c bf 6f f0 85 be da f5 1b 3e
       0.42970818 -0.9242731 -0.2616 0.15230504
0000c0 24 0c 88 bd 22 ac 5e 3f 40 94 c3 3f 60 e5 92 bf
       -0.06642941 0.86981404 1.5279617 -1.147625
0000d0 2f 2c 73 3f 6e e4 69 3f ca 72 43 bf 3c 56 f8 3d
       0.94989294 0.9136418 -0.7634703 0.12125823
0000e0 9c 16 a2 be d6 0f be be c8 a4 6d 3e 64 5a 85 3d
       -0.31657875 -0.37121457 0.2320739 0.06511381
0000f0 12 39 c9 be d1 93 9b 3d 31 1c 24 be ba 51 bf bd
       -0.39301354 0.07596553 -0.16026379 -0.0934176

l2.bias f4 [8]
000000 5f 55 54 3e 15 94 c7 3c 83 a3 3e 3e 4d fd 0d 3f
       0.20735691 0.024362603 0.18617062 0.5546463
000010 02 61 e8 3e ec 25 4b 3f 0d 50 27 be b4 0f 8a be
       0.4538651 0.7935474 -0.1633913 -0.26965106

l3.weight f4 [12, 8]
000000 d0 ce 5d bf 14 06 31 3f db 25 09 bf f7 73 94 3e
       -0.86643696 0.691499 -0.5357339 0.28994724
000010 41 49 af 3e 4c d9 cc bf 1b 68 21 be 6d c0 9a be
       0.34235576 -1.6003814 -0.1576237 -0.30224934
000020 8c 63 60 bc 64 68 0c bf d6 8e 19 3b 0a 30 33 3e
       -0.013695609 -0.5484679 0.0023431084 0.17498794
000030 32 8d ab bf 38 d1 ae 3e e9 5f 97 bf c9 9e 4f 3d
       -1.3402464 0.34143996 -1.1826144 0.05068854
000040 33 47 4a 3e 5e 73 f5 3d 62 65 ed bf 62 41 89 bd
       0.19753723 0.11984895 -1.8546565 -0.06701924
000050 09 c2 a9 3d 60 50 3e 3f 63 34 c9 bf 1a eb a0 bd
       0.082889624 0.7434139 -1.5719112 -0.07857342
000060 cf 9a c9 bf b2 84 38 3f bb 9f de bf 1d 39 21 3f
       -1.5750369 0.72077477 -1.7392496 0.6297777
000070 3e 98 9b 3e 2d 59 e8 3d 82 74 82 bf d0 40 87 3e
       0.3038959 0.11345134 -1.0191805 0.26416636
000080 94 ba 1a 3f 89 e4 0d c0 51 b1 62 bd 22 51 cb bf
       0.60440946 -2.2170737 -0.055344883 -1.5884135
000090 e7 20 d7 bf 5a 1a 25 3f 0b 86 40 bf e4 f1 31 3e
       -1.6806916 0.64493334 -0.75204533 0.1737743
0000a0 ff 25 a2 bf 66 73 02 c0 01 94 0b 3f d1 8b 18 3f
       -1.2667845 -2.0382934 0.5452271 0.5958834
0000b0 33 8a 3a bf 63 84 af bf f9 26 33 bf a8 1d a4 bd
       -0.72867125 -1.3712276 -0.6998134 -0.08013469
0000c0 6e bd e3 3e 96 0b 69 bf b7 ef 83 3e 92 61 99 bf
       0.4448046 -0.91033304 0.25768825 -1.1982901
0000d0 1b 44 61 3e 0d aa c2 bf 92 b0 45 bf 0c ed 86 3e
       0.21998636 -1.5208145 -0.7722255 0.26352727
0000e0 8f 74 99 bf aa eb b4 bf b2 03 1d 3e ad be 3d bf
       -1.1988696 -1.4134419 0.15333441 -0.74119073
0000f0 d6 4e 21 3f c4 50 92 bf 42 1f a3 3e fc 53 5b 3e
       0.6301092 -1.1430898 0.31859785 0.21418756
000100 53 d0 4d be 2d 2b 55 be cd e5 c5 bf 70 25 ea be
       -0.20099 -0.20817252 -1.5460755 -0.45731688
000110 ff 70 94 3e a5 45 11 3e f1 e0 15 3f 89 19 1c 3e
       0.2899246 0.14186724 0.5854636 0.15244116
000120 c3 ec 54 3e 3c 12 83 bf d6 e5 43 3f b2 79 d1 bf
       0.20793442 -1.023994 0.76522577 -1.6365263
000130 cf a9 92 bf 09 bc 91 bf 33 e5 c4 bf 1d 90 ac be
       -1.1458071 -1.1385509 -1.5382446 -0.337037
000140 4d 63 ab 3e 16 81 0d c0 9d db d8 be 3e d1 f7 bf
       0.33474198 -2.2110038 -0.42355052 -1.9360731
000150 ab ed c0 3e 36 67 93 bd e2 c5 79 3e e8 cd cd be
       0.37681326 -0.0719742 0.24391893 -0.40196157
000160 7e a4 d7 3e 0c 51 62 bf 28 8b 46 3e 20 9b ce bf
       0.42117685 -0.8840492 0.19389021 -1.614109
000170 41 35 c5 3e 0b 52 34 3d 97 4c 10 c0 83 ad 5d 3e
       0.38517192 0.044023555 -2.2546747 0.2164822

l3.bias f4 [12]
000000 df c3 35 be ac e0 8a 3e 42 02 e7 bd bd 9f 86 be
       -0.177505 0.27124536 -0.112797275 -0.26293746
000010 de 52 d9 be 5e 14 28 3f 73 ed 74 be 1c 44 bc 3e
       -0.42446035 0.6565608 -0.23918705 0.36770713
000020 f5 cf f3 be 20 e4 12 be 29 a5 2c be 82 94 25 be
       -0.47619596 -0.14344835 -0.16859879 -0.16169932
